temperature_cnn.pth (torch, 624261 bytes, 9 tensors)

conv_layers.0.weight f4 [16, 3, 3, 3]
00000000: e6af 15be 5bbe 0dbe 9381 d0bd a7ac c3bd
00000010: 00ae bcbc 202e 093d e0d2 6fbd 0901 3b3e
00000020: 175b 103e 071e 3a3e b26e be3d 691e 9abd
00000030: ff72 3e3e 9827 c4bd c369 2cbe 1877 2dbd
00000040: 7d9f 0a3e 3214 9e3d 73de 1b3e 768a bb3d
00000050: 9ef1 d33d 22cc 86bd 5920 1d3e 1851 adbd
00000060: e867 1bbe 2c42 5d3d a67a b43d 2400 84bd
00000070: dff3 303e ccdb ddbd 7fd3 d2bd 782d 0f3d
00000080: 2443 8dbd b3ee 223e 38b4 83bd 25cb 403e
00000090: 2029 b1bc 79f3 063e 6dee 393e 3ca7 a0bd
000000a0: 27e9 ffbd 4cf2 62bd 4b81 063e b215 e13d
000000b0: b4a1 7b3d a00f 693d 34d8 26be 82ee 893d
000000c0: b0ec 933c 2e17 fd3d bc33 44bd 75f8 1a3e
000000d0: 6eb1 dc3d caeb 0ebe 3ce4 5bbd 7381 203e
000000e0: d502 213e 88bf 9c3c 0867 33bd 576e 053e
000000f0: cb2c 8fbd d392 3abe b63a dabd 8082 26bb
00000100: 6ac7 d03d 0d81 2c3e aa1c 883d 7b33 063e
00000110: 12fc b53d d824 a93c 6365 233e 20e3 98bb
00000120: b006 013c e723 3cbe 498b 123e 3040 80bd
00000130: db90 143e 82eb 8a3d cade d0bd 9c2c 50bd
00000140: 00ea 2f3b d3b3 febd c82e 34be 8099 253c
00000150: baf1 fb3d 50af 18bd 96e9 1ebe 8664 883d
00000160: 4563 3f3e ec37 6fbd 4e7f f1bd 107c 6abc
00000170: f88c 0ebd 11e4 afbd 6e87 9f3d 7815 50bd
00000180: b315 263e c22e a33d 815d 0e3e a3c8 32be
00000190: 5545 bcbd 4e73 873d a8b8 f4bc cdca d4bd
000001a0: c887 663d 9d86 d2bd 1d06 2dbe b811 38bd
000001b0: 725c ca3d 8322 303e 5820 8a3c 7e39 2abe
000001c0: 8aea ab3d 8062 fc3c 7053 e1bd 6541 323e
000001d0: c088 4d3c 60b5 7fbd 09e1 1e3e 5fcc 1c3e
000001e0: 8887 cdbd 6018 29bd c1ce 1f3e b4f6 223d
000001f0: 7cc3 0f3d 86f7 fa3d 62c9 e53d c813 e63c
00000200: a3e3 263e 4e7c ce3d 0024 4f3b 1059 e7bc
00000210: c0f5 28bc b1a3 243e 628a 913d 5362 90bd
00000220: 00d5 ac3c 4c17 ffbd e457 84bd b8db 063d
00000230: 00f4 29b9 80ac 123d 32e6 a93d cfc2 e5bd
00000240: c7ac 25be e03f 313c 767e fa3d 84e3 d5bd
00000250: 6bbb 263e 1b62 23be 74de 0fbd 49fd 0c3e
00000260: e09f 05be 3812 9abc d26a d83d 109f 0cbc
00000270: 4a14 e73d c822 38bd 8085 f0bb e03a 11bd
00000280: 3658 1dbe 528b e63d 4891 0fbd 2264 f43d
00000290: 58ba c2bc 0210 09be c021 853c 2631 24be
000002a0: 33e7 1d3e e708 08be 1cc2 b6bd f056 76bd
000002b0: e732 e1bd 5e70 ad3d 3c15 5dbd e4b5 563d
000002c0: b85a f2bc c8a3 173d 2e7f 99bd c815 ccbc
000002d0: fa04 ad3d 004f 243b 60f0 0dbc ae64 af3d
000002e0: 902f 373d e46b 12be f04e 67bd 4534 213e
000002f0: 79ac febd 409e 333d 005f c93a 3c89 3c3d
00000300: 7575 133e 5c1a 87bd 00bf c53a 0012 f9bb
00000310: d248 d53d 487f a6bc 2c51 99bd 1848 fc3c
00000320: 105d 413c 1a7a 0bbe 0cfa 4abd 1808 c33c
00000330: 0c4e 1a3d d11f 3d3e a063 bbbb 882b 17be
00000340: 7773 0c3e df96 07be 46e3 943d 9017 4a3c
00000350: efa6 21be e57e a2bd d138 a2bd f4c4 9cbd
00000360: 783d 9a3c 5734 2b3e 23a3 9dbd cba2 343e
00000370: a274 a0bd 7600 e43d a6d8 913d 1cd0 14be
00000380: 3ca3 593d 9aa1 2ebe 8c7e c8bd a06e a6bc
00000390: a9e5 423e 7a09 e23d c050 1e3c 605b 38bc
000003a0: 96fb 2cbe f02a 563c d071 033c 3462 7ebd
000003b0: 7a95 c53d 3e07 16be adf6 243e 587c 90bd
000003c0: 6e75 b03d dc2c 7f3d 85b4 1abe c0bd 133b
000003d0: bcb0 8abd 46fe e43d 396d 1c3e 8043 fdba
000003e0: d60f edbd 80a8 0e3b 5c87 2e3d 8fbb b3bd
000003f0: e67b 893d 99b3 093e 8fb9 383e 501e 48bc
-0.14617881 -0.13842146 -0.10180964 -0.09554415 -0.023032188 0.033491254 -0.058550715 0.18262114
0.14097248 0.18175517 0.09298457 -0.075253315 0.18598555 -0.095778644 -0.1683722 -0.042349905
0.13537402 0.07718696 0.15221576 0.09157269 0.10348819 -0.06581904 0.15344371 -0.08462733
-0.15176356 0.054018185 0.08812456 -0.06445339 0.1728053 -0.108329386 -0.10294246 0.03495547
-0.06897572 0.15911369 -0.064308584 0.18827493 -0.021626055 0.13178815 0.18157358 -0.078443974
-0.12495642 -0.055406854 0.13135259 0.10990466 0.06143351 0.056899667 -0.16293412 0.06734945
0.018057197 0.12357937 -0.0479009 0.15133841 0.107760295 -0.13957134 -0.053684458 0.15674381
0.15723737 0.019134298 -0.04379943 0.13030373 -0.069909655 -0.18220071 -0.106557295 -0.0025407374
0.10194285 0.16846104 0.06646092 0.13105576 0.08885969 0.020647451 0.15956645 -0.0046657473
0.00787513 -0.1837307 0.14310946 -0.06262243 0.14508383 0.06783201 -0.10198744 -0.050823793
0.0026842356 -0.124366425 -0.1759597 0.010107398 0.12301965 -0.037276566 -0.15518793 0.06659798
0.18690212 -0.05840294 -0.117918596 -0.014311805 -0.034802407 -0.08588422 0.07789503 -0.050801724
0.16219215 0.07967903 0.13902856 -0.1745935 -0.091929115 0.066137895 -0.029873207 -0.10390244
0.056281835 -0.10279582 -0.16896863 -0.044938773 0.09880914 0.17200665 0.016861126 -0.16623494
0.08394344 0.030808687 -0.110022426 0.17407759 0.012544811 -0.062428832 0.15515532 0.15312336
-0.10035616 -0.04128301 0.15606214 0.039786056 0.035098538 0.122542426 0.11220051 0.028085604
0.16297774 0.10082303 0.003160715 -0.02824071 -0.010312498 0.16078068 0.071064726 -0.07050004
0.02109766 -0.124556154 -0.06462076 0.032924384 -0.00016207993 0.03580904 0.082958594 -0.112187974
-0.1617919 0.010818452 0.12231152 -0.10443786 0.16282432 -0.15955393 -0.035124257 0.13768496
-0.13049269 -0.018807516 0.10567249 -0.008582845 0.11283167 -0.044955045 -0.007340133 -0.03545654
-0.15365681 0.11257042 -0.03505066 0.11933161 -0.023770496 -0.13385013 0.016251445 -0.16034374
0.15420227 -0.13284646 -0.08923742 -0.060141504 -0.10996037 0.08468698 -0.05397533 0.05241956
-0.029584274 0.03702143 -0.07494961 -0.02491273 0.08448215 0.0025071502 -0.008663267 0.08564125
0.044723094 -0.1429897 -0.056471765 0.15742595 -0.1243524 0.04385209 0.0015363395 0.046029314
0.14400275 -0.065968245 0.001508683 -0.0076010227 0.1041428 -0.020324364 -0.074861854 0.030796096
0.011801973 -0.13620797 -0.04955487 0.02380757 0.037672088 0.18469168 -0.0057186633 -0.147627
0.13715921 -0.13241147 0.072699115 0.012334719 -0.15786336 -0.079343595 -0.07920993 -0.07654753
0.018828139 0.16719185 -0.076971315 0.17640226 -0.07834746 0.111329004 0.071214005 -0.14532512
0.053134188 -0.17053834 -0.09789762 -0.020316422 0.19032921 0.11036964 0.009662807 -0.011252254
-0.16892847 0.013071761 0.0080227405 -0.062105373 0.09647651 -0.146512 0.16109724 -0.07054967
0.08616148 0.06229864 -0.15107925 0.002254352 -0.06771991 0.11181311 0.1527604 -0.0019322485
-0.11575286 0.0021767914 0.042609558 -0.08776008 0.06713085 0.13447417 0.18039535 -0.012214258

conv_layers.0.bias f4 [16]
00000000: ed6d d1bd 92b6 c83d 38b1 e03c 7896 8bbd
00000010: dbcd 06be 66d2 14be b61d d23d 5df5 b8bd
00000020: c046 9fbc a9cd 35be 7074 fa3c 0c32 bbbd
00000030: 0613 df3d 42d6 ea3d 3323 15be 6087 13bc
-0.10226045 0.098004475 0.027428254 -0.06815809 -0.13164465 -0.14533386 0.10259573 -0.09031174
-0.019442916 -0.17754234 0.0305731 -0.09140405 0.108923 0.11466648 -0.14564209 -0.009004444

conv_layers.3.weight f4 [32, 16, 3, 3]
00000000: d34d 4dbd da2a 763d 3952 823d 984f 55bd
00000010: 2801 3e3c 626b 9ebd 804e f53c 44bf 9bbd
00000020: 1ec0 1dbd 3265 4c3d c798 933d fdfc 813d
00000030: a6bb 77bd b6ac b1bc c0b4 e4bc f0d0 36bd
00000040: ca41 653d 663a 593d 10b6 e0bb f8f9 093c
00000050: e0c9 6b3c 3e33 013d ba00 793d 00c9 b739
00000060: 60e3 79bd 2324 36bd 06b4 edbc 6b66 68bd
00000070: c085 d5bc 036b 36bd 5783 8b3d 408f debc
00000080: eb30 54bd 82e4 743d eae4 643d 320a 723d
00000090: d6b5 a6bd dd39 a73d a074 333b 1e8e 6fbd
000000a0: fc9c 80bc 6643 c5bc 7019 b63c 1223 773d
000000b0: 6086 103b b631 fbbc 3df4 853d 20f2 7cbc
000000c0: 0637 6b3d aa79 303d 7db3 803d 5417 c23c
000000d0: 823b 733d 40a3 ecbc c893 5c3c ec0c c4bc
000000e0: a17f a93d e0d8 3f3b 0050 e539 88a5 76bd
000000f0: 3646 b0bc 86ba 333d 1e85 2dbd 60e8 c9bc
00000100: fc58 a7bd b018 a6bc 7419 85bc a0f0 8ebc
00000110: c9d7 823d 153b 853d 2c85 e7bc a0d7 a8bd
00000120: 8ab9 a2bd 5c05 cfbc d1a5 a13d 3024 d7bc
00000130: d82c 62bc 46e7 fbbc d863 8abd 8367 32bd
00000140: c013 90bb 9ac6 84bd 0459 843c 9e47 353d
00000150: 80da 4c3a db17 8ebd 34d9 8d3c 4054 24bc
00000160: 44a6 bc3c 4072 3a3c cf45 a8bd 04b2 82bd
00000170: ce60 0d3d 6ec1 62bd 00ec a4bd d06c f13c
00000180: 50c2 98bd 10f3 acbb cc89 c6bc 40cf b53b
00000190: 788c 1e3c d91e 983d 149f 8dbc 0332 8fbd
000001a0: 010f 893d de2e 393d 2081 1cbc 000c e0b9
000001b0: a405 fe3c 01b1 8f3d 0c58 b1bc 2859 1a3c
000001c0: dd16 8e3d 74cf 85bd 652b a93d e0e5 7dbc
000001d0: ee20 36bd efa2 9f3d c070 633c 60f7 24bd
000001e0: 0064 003c ebea 8ebd e3c3 a9bd 805f e63b
000001f0: 80e5 54bb 529c 3a3d 4a0d 3e3d 10b6 c43b
00000200: 23f2 90bd fda5 8c3d 302f b33b 00d0 1fbc
00000210: 33c3 15bd 23f2 63bd 4078 64bc b6d7 5abd
00000220: d4b7 8d3c 0054 a7b9 20c0 733b 4012 df3a
00000230: 7e43 53bd fc54 c4bc e051 5bbb d59a 953d
00000240: f889 49bc 06f6 c3bc 3428 a93c a953 903d
00000250: b202 603d fcea cf3c b0c0 093d 124c 433d
00000260: 96c4 363d 8b79 24bd cf95 9cbd cae9 a7bd
00000270: 7040 853c c0c7 cabc 8fc4 a03d 8085 f8bb
00000280: b2a7 7b3d 3db9 833d 3ece 0cbd 7aec 94bd
00000290: b076 eabb c674 94bd 3bc1 47bd 27e5 96bd
000002a0: 5006 4ebd 1878 37bc 6475 9abd 3821 3cbd
000002b0: 0062 553b ab6a 18bd 96ff 60bd 163d 80bd
000002c0: daac 283d d666 39bd 9e27 3b3d 6220 6a3d
000002d0: 2e8d 5bbd 3695 32bd b62f 023d a8cf 22bd
000002e0: 7507 823d 0baa 21bd 4682 94bd 97df 803d
000002f0: a0f7 063d 6c57 85bc 5856 21bc 6c85 a6bc
00000300: 8680 a3bd 7907 a73d 2482 e93c 607b 35bc
00000310: 30da a5bd 5fd0 823d 968d 343d 635b 76bd
00000320: a8e8 32bd b06b d7bc a5f6 863d d1f1 a43d
00000330: bcf6 8e3c b1bf 9a3d 5acb a3bd 2095 1fbc
00000340: 13d9 82bd d483 a3bc 8ead 15bd dc89 e93c
00000350: f907 9c3d 2e35 11bd 3dd7 933d 4877 7c3c
00000360: 62fb 82bd 13ba 7fbd 2774 9cbd 8d73 833d
00000370: 2e66 5dbd 4039 6c3c 50b3 84bb d6be a9bd
00000380: 8f57 a6bd 1c1a 86bd 4087 9b3b dc4a a2bc
00000390: fb62 873d 00f4 f13a a340 aabd abda 853d
000003a0: 000e 61ba 2018 7a3c f03e 8abd 966a b1bc
000003b0: 0320 8abd 52ae 96bd 00ea 3b39 9022 a0bd
000003c0: 922b 313d 7c82 81bd d473 803c 5c0e dc3c
000003d0: 20d3 a9bd 9d1b 973d 9b8f 4bbd b038 bcbc
000003e0: b8e7 173d e0cf 38bc 6870 00bd a102 803d
000003f0: 1f36 9d3d 9f6c a73d 13ae 873d ea00 423d
-0.050123047 0.06009946 0.06363339 -0.05207786 0.011596955 -0.077353254 0.029944658 -0.076048404
-0.038513295 0.049901195 0.07206874 0.06347082 -0.06048169 -0.0216888 -0.02791822 -0.044632852
0.055970944 0.05303421 -0.006857641 0.008421414 0.0143913925 0.03154301 0.06079171 0.00035054237
-0.061007857 -0.044468056 -0.029016506 -0.0567383 -0.026064754 -0.044535648 0.068121605 -0.027167916
-0.051804464 0.059788235 0.055882372 0.059091754 -0.08140151 0.081653334 0.0027382746 -0.058485143
-0.015699856 -0.02407999 0.022228926 0.06033618 0.002205275 -0.030663352 0.065407254 -0.0154385865
0.05742552 0.043084778 0.06284235 0.023692764 0.059382923 -0.028886437 0.013462968 -0.023931943
0.082762964 0.0029273555 0.00043737888 -0.060216457 -0.021517854 0.043879054 -0.04236328 -0.024646938
-0.08171269 -0.020275444 -0.016247489 -0.017448723 0.06388814 0.0650541 -0.028261743 -0.08244252
-0.07945545 -0.02527111 0.07892955 -0.026262373 -0.013804637 -0.030749928 -0.06757325 -0.043555748
-0.0043968856 -0.06483193 0.016155727 0.044257753 0.00078145415 -0.06938144 0.017315485 -0.010029852
0.0230285 0.011379778 -0.0821644 -0.0638161 0.03451615 -0.05536025 -0.08052826 0.029470831
-0.07458937 -0.0052779987 -0.024235629 0.0055483878 0.009677045 0.07427759 -0.017287768 -0.06991961
0.06692315 0.04521071 -0.00955227 -0.0004273355 0.031008549 0.07016183 -0.02164843 0.009420671
0.069379546 -0.06533709 0.0826023 -0.015496701 -0.044464998 0.07794749 0.013881862 -0.040274978
0.007836342 -0.06978401 -0.082893156 0.0070304275 -0.0032485425 0.045559235 0.046399392 0.006003149
-0.07077434 0.06867597 0.0054682717 -0.009754181 -0.03656311 -0.05565084 -0.013944685 -0.053428374
0.01729957 -0.00031915307 0.0037193373 0.0017018989 -0.051578037 -0.023966305 -0.003346555 0.073049225
-0.012300961 -0.023921024 0.020649053 0.07047207 0.05469007 0.025380604 0.033631027 0.04767997
0.044621073 -0.040154975 -0.07645761 -0.081988886 0.016266078 -0.024753451 0.078499906 -0.007584274
0.061439224 0.06431816 -0.034376375 -0.07271667 -0.007155262 -0.07248835 -0.048768263 -0.07367926
-0.05029899 -0.011198066 -0.07541922 -0.045930117 0.0032559633 -0.0372111 -0.054931246 -0.06261651
0.04118047 -0.045264088 0.04569208 0.05715979 -0.053601436 -0.04359933 0.031783782 -0.039748818
0.063490786 -0.039468806 -0.0725141 0.062926464 0.032950997 -0.016277038 -0.009847246 -0.020327292
-0.07983498 0.08155722 0.028504439 -0.011076778 -0.080982566 0.063874 0.04408034 -0.060145747
-0.04367891 -0.026296467 0.065900125 0.08053935 0.017451636 0.075560935 -0.079977706 -0.009740144
-0.0638906 -0.019960321 -0.036542468 0.02850812 0.07618708 -0.035451107 0.07218788 0.015409298
-0.06395604 -0.062433314 -0.07639342 0.06418524 -0.054052524 0.014417946 -0.004049696 -0.08288352
-0.08122169 -0.06547949 0.0047463477 -0.019811086 0.06610676 0.0018459558 -0.0831311 0.06535848
-0.0008585155 0.015264541 -0.067502856 -0.02165727 -0.06744387 -0.07357468 0.00017920882 -0.07819092
0.043254443 -0.06323716 0.015680231 0.026862316 -0.08292222 0.07378314 -0.0496975 -0.02297625
0.03708622 -0.01128003 -0.0313572 0.062505014 0.076763384 0.08175015 0.06624999 0.047364153

conv_layers.3.bias f4 [32]
00000000: 50b7 e03c 0cf3 91bd 706e 95bc d414 973c
00000010: 13f8 1bbd e0b5 30bd 18b4 99bd 5845 003d
00000020: 87d8 91bd d8c9 89bd e597 a63d 6048 203b
00000030: e0b1 f7bc e854 07bc 083e 1abc 39e8 a83d
00000040: a9f7 a93d 8453 a6bc ab03 a83d 5a86 343d
00000050: 4069 443c dc6d c63c dd91 8c3d be6d 543d
00000060: f8b4 743c 7ce7 94bc b6e8 fabc 4757 9c3d
00000070: 0f2a 913d 88d7 1dbc 6bbf 7fbd e0b9 74bb
0.02743116 -0.07126436 -0.018241137 0.018442549 -0.03807838 -0.0431422 -0.07505053 0.03131613
-0.071213774 -0.06727952 0.0813444 0.0024457201 -0.030236185 -0.008259989 -0.009414203 0.08247418
0.082991906 -0.020303495 0.082038246 0.04407344 0.011987984 0.024222307 0.06863759 0.05186247
0.014935724 -0.018176787 -0.030628543 0.07633834 0.070881 -0.009633906 -0.06243841 -0.0037342235

conv_layers.6.weight f4 [64, 32, 3, 3]
00000000: 5707 5a3d d117 09bd ab1a 2d3d 5a57 e3bc
00000010: 99b3 253d 0006 fcbb 0721 223d 148c 3cbc
00000020: dc45 3d3c b069 543b 4e08 8fbc 35f2 0fbd
00000030: d877 b03b a0e3 d83a c0f5 ccbb fcdf 693c
00000040: 0842 e1bb 7c19 8bbc e36e 313d d527 033d
00000050: 3fde 0c3d 010f f6bc e7c6 3cbd bca9 553c
00000060: c6f8 d03c 1276 ab3c a52d 4b3d e511 383d
00000070: 10d1 a5bc c21e ae3c 80df 00bb ab9c 5b3d
00000080: c454 2c3c 44ee 55bd af8e e4bc 28a2 efbb
00000090: 5a82 973c 23b8 563d 9eaf f23c 0010 34b9
000000a0: a129 613d bae6 6fbd 5802 6dbd 267f c03c
000000b0: e873 61bd 5857 a63b 4e13 dcbc 69b9 153d
000000c0: 9a40 eb3c f0cd 4cbd 8a1a c23c 9679 13bd
000000d0: e4fa 3abc 8657 833c 7a95 91bc 87c2 27bd
000000e0: 3c2e c1bc 5ce9 7b3c 440c 553c 1726 453d
000000f0: 7e7b f13c a90d 393d 4081 36bd c250 9f3c
00000100: 00d8 083a 7d62 193d 8ed5 c0bc b6f5 f33c
00000110: 7f38 283d 5fb5 f9bc fe4e 85bc a5a3 0b3d
00000120: 360f 18bd 0f60 5a3d 784b d73b 481e df3b
00000130: 5e39 26bd 6860 10bd 1bc4 693d 2246 88bc
00000140: 54f7 3cbc 6260 8a3c b80a 963b 00c6 51bd
00000150: a0b4 06bc a8e2 c23b 07b7 693d 5fea 413d
00000160: 0a8b 02bd 228d 1dbd 34a7 5fbc 8681 c33c
00000170: 2335 433d ca02 a03c 420c 08bd a002 8ebc
00000180: 6622 dc3c 591a 27bd d2e5 8abc f8e4 4cbc
00000190: befa 3fbd 0088 f8ba 41a9 5dbd 508c ebbc
000001a0: c84c 2bbc 9ae9 bf3c 1392 6c3d da56 33bd
000001b0: 22f1 b43c 007c 28ba 48ec e7bb 5a59 d53c
000001c0: d4c3 1dbd 33d8 173d ab79 0a3d a243 983c
000001d0: 981c 7fbc bd33 4bbd 5355 013d 007e 8e39
000001e0: 7238 a43c 60db d1bb e022 03bd a612 bc3c
000001f0: 1473 0a3c 80fa 043b ec6b 0a3c 08ec 23bd
00000200: b8c0 b6bb 3b6e 4a3d de3a 42bd 14cb 23bc
00000210: 05a2 17bd c3da 6b3d b483 37bd ace0 293c
00000220: aeb8 82bc 80fa 46bd 0a0b f33c ae54 0fbd
00000230: 0b97 edbc 6eee 8d3c 6ea1 c5bc 228a 9ebc
00000240: 30fd cabc 3d91 5b3d 52e4 5ebd 45fe 6f3d
00000250: a6fa ca3c f9c1 5d3d 8ee5 66bd 10ef 373b
00000260: e822 41bc 7299 ae3c 0476 fbbc a0af 6bbd
00000270: 3168 663d 2e96 63bd e0cf 23bd a573 633d
00000280: 985a 47bd 0ab2 8e3c 7545 53bd 007e c0ba
00000290: a6ee 8a3c 2c25 513c c310 233d 1d1f 583d
000002a0: ff4a 543d c0ca 873a 12f2 52bd ca3d 5bbd
000002b0: 827e 21bd bb7f 24bd 7c47 11bd 5472 5abd
000002c0: 9334 583d d81b 70bc 4d84 133d d53c 413d
000002d0: d49e 63bd 7041 3fbd ba0b db3c 682a be3b
000002e0: e088 dbbc 208b 033b 1df1 4f3d 00f2 9c38
000002f0: b762 f4bc b0a7 593b 8e37 95bc 7755 1e3d
00000300: 7d39 403d 5322 fabc 8fa7 693d ccb1 4ebd
00000310: 7d75 1a3d a805 2abc b81e 77bc 40e7 5a3a
00000320: f428 1e3c a017 6a3b 65e7 543d b818 9abc
00000330: 767a 90bc 06df cf3c e75d 253d fcad d3bc
00000340: 4128 643d 04d5 0e3c 8608 f1bc da59 8dbc
00000350: 8c88 283c 9a95 da3c 435b 273d c675 d23c
00000360: 824e cc3c ffcd 613d 0db8 67bd 28ea 8f3b
00000370: b204 0ebd 6160 023d d08c 21bb bb22 5d3d
00000380: 5421 70bd f3d5 243d 6ff9 423d ab40 473d
00000390: 8137 5c3d 40f4 453b 3ec3 d3bc f088 c0bb
000003a0: 0982 153d 3090 84bb e5ca 65bd 0250 dd3c
000003b0: 0a2a 5fbd 842b 7d3c 6ec2 8fbc 6307 5abd
000003c0: 8c65 07bd 0f91 5e3d 20e0 7abc d387 6cbd
000003d0: b1dc 583d 64ae d8bc da50 fa3c c7b7 3dbd
000003e0: e6fb 5fbd 6bb9 13bd 1d3e 173d dd67 65bd
000003f0: 0e77 48bd fbb5 273d 3b53 473d 5ce3 4cbc
0.053229656 -0.03346998 0.04226176 -0.027751613 0.04045448 -0.007691145 0.03958228 -0.011508007
0.0115523 0.0032411627 -0.017460015 -0.035143096 0.0053853802 0.001654733 -0.0062548816 0.014274593
-0.0068743266 -0.016979925 0.04331864 0.03202041 0.034391638 -0.030036451 -0.046088126 0.013040956
0.02550925 0.020930324 0.049604077 0.04493894 -0.02024129 0.0212549 -0.0019664466 0.053616207
0.010518257 -0.05222918 -0.027900068 -0.0073130317 0.018494774 0.0524217 0.029624756 -0.00017172098
0.05497134 -0.058569647 -0.057863563 0.02349813 -0.055042177 0.00507633 -0.026864674 0.036553774
0.028717328 -0.050001085 0.023694295 -0.036004625 -0.011412356 0.016032945 -0.017771471 -0.040957
-0.023581617 0.015375461 0.013003413 0.04813203 0.029477831 0.045179043 -0.044556856 0.019447688
0.0005220175 0.03744744 -0.02353933 0.02978025 0.041069504 -0.030481992 -0.016273018 0.03409161
-0.03712388 0.053314265 0.006570276 0.0068090297 -0.040582053 -0.03524819 0.057071786 -0.016635004
-0.011533577 0.016891662 0.0045789145 -0.05121422 -0.008221775 0.0059474297 0.057059314 0.047342654
-0.03187088 -0.038464673 -0.013650704 0.023865473 0.047658097 0.01953258 -0.033214815 -0.017335236
0.026871871 -0.04079661 -0.01695529 -0.012505762 -0.046869986 -0.001896143 -0.05411649 -0.02875343
-0.010455318 0.02342682 0.057756495 -0.043784 0.022087637 -0.0006427169 -0.0070777275 0.026043583
-0.038516834 0.037071418 0.033807438 0.018586937 -0.015570782 -0.04960989 0.031575512 0.00027178228
0.020046446 -0.0064043254 -0.03201568 0.022958111 0.008450288 0.0020290911 0.008448582 -0.04002002
-0.005577173 0.04942153 -0.04741942 -0.009997148 -0.03701975 0.057581674 -0.044803336 0.010368507
-0.015957203 -0.04857874 0.02966835 -0.034992866 -0.029002687 0.017325606 -0.024124827 -0.019352976
-0.024778932 0.053605307 -0.054416962 0.0585921 0.024777722 0.054140065 -0.056371264 0.0028066076
-0.011788107 0.021313403 -0.030695923 -0.057540536 0.05625171 -0.055563144 -0.039993167 0.05553021
-0.04867038 0.01741888 -0.05157991 -0.0014685988 0.0169595 0.01276521 0.039810907 0.052764047
0.051829334 0.0010360107 -0.051500387 -0.053525724 -0.039427288 -0.040160876 -0.035468563 -0.053331688
0.052784514 -0.014655076 0.036014844 0.047177155 -0.055571392 -0.046693265 0.02673899 0.005803395
-0.026798666 0.0020071939 0.050767053 7.483736e-05 -0.029832227 0.0033211522 -0.018214967 0.038655724
0.046929825 -0.030533945 0.057044562 -0.05046253 0.0377097 -0.010377325 -0.0150830075 0.0008350499
0.009653319 0.0035719648 0.051978488 -0.018810615 -0.017636519 0.0253749 0.040372755 -0.025839798
0.05570245 0.008717779 -0.02942301 -0.017254759 0.010286462 0.026682664 0.04085852 0.025690924
0.02493978 0.055128094 -0.05657201 0.0043919273 -0.034672447 0.031830195 -0.0024650581 0.0539882
-0.058625534 0.0402431 0.04760116 0.048645657 0.05376387 0.0030205399 -0.025849935 -0.005875699
0.036500964 -0.004045509 -0.0561017 0.02701569 -0.05448345 0.015452269 -0.017548766 -0.0532297
-0.033055827 0.054337557 -0.015312225 -0.05774672 0.052944843 -0.026450343 0.030556131 -0.04631784
-0.05468359 -0.0360655 0.03692447 -0.056007255 -0.048941664 0.040945034 0.04866336 -0.012505379

conv_layers.6.bias f4 [64]
00000000: f4e5 7bbc 00d1 31bc 009e 9439 8a55 db3c
00000010: 0e1b 90bc c07c 36bb c07a 7f3a b36c 183d
00000020: da02 c83c c283 ecbc 838c 14bd 202a db3a
00000030: 427e df3c 905d 1f3b a45d 04bd 0970 56bd
00000040: b265 dfbc 9438 8abc 0e13 fa3c a847 4bbd
00000050: 449d 1d3c 30ee 36bc 02e7 c6bc 445c 6a3c
00000060: 1204 67bd 50e5 cabc d081 bebb f144 54bd
00000070: a0bf 53bd deb5 63bd 0cd8 81bc b52e 4e3d
00000080: 00ec 6b3a 33b0 393d 604a debc c8bc c43b
00000090: 31ac 36bd eb43 0ebd c7ee 2a3d 359a 603d
000000a0: 93a9 5a3d aa65 b33c c908 243d 3efc a5bc
000000b0: 00a1 9c3a fa9e ac3c 7b70 303d 0a59 b6bc
000000c0: d8ac 58bd 8011 04bb 0e98 e43c d926 05bd
000000d0: 0e2c 40bd 9604 ae3c f641 59bd 985e 9fbb
000000e0: 4cf8 5b3c fbb2 47bd bc35 b2bc 00e8 9fb9
000000f0: b50b 103d 08fd fa3b 635d 453d a086 41bd
-0.015374649 -0.010853052 0.0002834648 0.026774187 -0.017591026 -0.0027845353 0.0009745769 0.03721304
0.024415422 -0.02887142 -0.036266815 0.0016720928 0.027281884 0.0024317242 -0.032315865 -0.05235294
-0.027270172 -0.016872682 0.030526664 -0.049628884 0.009620015 -0.011165187 -0.024280075 0.014304224
-0.056400366 -0.024767548 -0.0058138147 -0.05182356 -0.05169642 -0.055593364 -0.01585009 0.050337512
0.00089997053 0.045334052 -0.027135074 0.00600395 -0.04459781 -0.03473274 0.041731622 0.054834563
0.053384375 0.021899063 0.04004744 -0.02026188 0.0011949837 0.0210719 0.04307602 -0.022259254
-0.05289921 -0.0020152032 0.027904537 -0.03250775 -0.046917014 0.021242421 -0.05304142 -0.0048635714
0.013425898 -0.048754673 -0.021754138 -0.00030499697 0.035167415 0.007659558 0.048184764 -0.04724753

fc_layers.1.weight f4 [128, 1024]
00000000: b204 c63c c4e7 11bc ccc4 d93c 2404 8d3c
00000010: 7608 a63c 762c c1bc 80c7 f4bc 86d3 aa3c
00000020: 503f 26bc 10e8 863b 4e95 adbc 406a 043b
00000030: ac77 25bc 3416 56bc 64d1 7a3c 982c f2bb
00000040: a036 a7bb a0d0 f33b cc51 853c 4c4c 41bc
00000050: 08f4 e43b 04a3 eabc 3013 183b 307e 5fbc
00000060: 7e8f b1bc 2af3 cebc 7c84 43bc e4d1 64bc
00000070: d0ef 69bc 72b7 c2bc be25 be3c ba2d f2bc
00000080: d0ab 06bc 60f6 1a3c 966a f0bc 4a02 a13c
00000090: e895 95bc 0012 9b39 6093 ac3a 50c8 893c
000000a0: d072 413b d0f3 9d3b ec65 e0bc fac7 e83c
000000b0: 1ebd 99bc d8c0 c7bc 00b9 4f3c beaa e7bc
000000c0: 00bc a93b 6cac 543c 1846 46bc 501d 74bc
000000d0: ca0b a13c 08d6 14bc 7042 eebc 4887 b03b
000000e0: 7e7a 943c 4022 3fbc 8a4a d0bc 540f 5f3c
000000f0: 6424 bcbc d0e3 723b 885a bd3c fad6 aabc
00000100: 5c91 35bc 82f2 a5bc e47c d43c 8051 19ba
00000110: 88b1 f4bb 08be 3fbc d068 adbb 5460 523c
00000120: dc9b 32bc e683 c83c 88f3 a33b eaff e33c
00000130: 7892 a73c a0a7 983a 088d 5bbc c0d3 91ba
00000140: 10e5 c8bb 281d 283c d831 ffbb 9011 35bc
00000150: a63d 9fbc 2a82 943c 368d fc3c 8630 cabc
00000160: 48f6 013c b417 1b3c 3cb3 fe3c d0c3 e13b
00000170: a8db 94bb bc9a d73c 30ab c3bc c84a c7bc
00000180: 24bc b3bc 00ff 383a d2a2 863c ac36 17bc
00000190: c823 f13b c834 f53c e493 72bc 10af 373b
000001a0: d43e 24bc 0e90 eb3c b099 483c 9889 f93c
000001b0: 605d 7ebc 2e8f c0bc b82b 82bc 9445 eabc
000001c0: 3c3b 3d3c be32 ce3c 9ea1 b73c 9c6b bdbc
000001d0: 428b c1bc 0045 df3a 70a9 7a3b a093 80ba
000001e0: 1088 b0bb c09c e73b be28 f13c d213 acbc
000001f0: 0e48 b6bc de7d b7bc 94a6 4e3c 3aac e1bc
00000200: 00a4 f539 a802 973b baf9 8fbc 00a3 e6bb
00000210: b263 9abc b6cf c13c 4004 803b 8074 03ba
00000220: 50ab c63b 1804 5f3c 70b5 16bc f0ee 16bc
00000230: 6e85 f7bc 3076 0a3c 4a3c c93c 0474 1f3c
00000240: 267e a7bc c018 0c3a e461 0bbc b877 84bc
00000250: f0af 47bb 9ac0 d9bc 3832 84bb 1e46 a5bc
00000260: a862 fd3b 30f4 77bc e246 9bbc 0064 f1bb
00000270: 8045 d8bc 9048 ef3c 101f db3b f4a0 3bbc
00000280: c09b 9fbb 487d 973c 6416 fabc 0069 0eb9
00000290: 3075 1c3c 8cfe 973c b069 53bb d8ec c13c
000002a0: f2e5 bcbc 1ce1 173c 3239 a33c 14ec f83c
000002b0: 04d1 5d3c 5e18 82bc 40d8 d33b 10d5 20bb
000002c0: 0014 383a 28ac 96bb 5e74 df3c 2020 36bc
000002d0: d0ab 833c 844f d03c a284 da3c bc6a afbc
000002e0: 2080 553b 38c4 2abc 6c3e 7e3c 56f7 fabc
000002f0: c803 893c 3845 d63b 9451 e53c 7437 30bc
00000300: 18c5 613c dad6 e7bc 3a93 f5bc 10c6 a4bc
00000310: b8fd 05bc d842 edbc 004a b0bb 04de 083c
00000320: c047 90ba 007b 4dbb a46b 37bc ae8b b6bc
00000330: 7c02 3d3c 309a 633b 8e5e ecbc f2d9 debc
00000340: 04db a2bc 4075 01bc 6c59 8a3c ea10 9ebc
00000350: 8849 2f3c 00dd 7cb9 505d f9bc a637 ac3c
00000360: 7899 2a3c c0f1 c5bc fa54 b83c e492 033c
00000370: 5015 3fbc 567d f9bc 3a01 883c 9c7d f73c
00000380: f8a1 953b e8c3 0a3c 4067 c53c 48ac 32bc
00000390: 80b9 663b 5c25 80bc d0a3 3abc 80eb f4b9
000003a0: c02e d7ba 34d6 bd3c ca2f 96bc 50f7 6dbc
000003b0: 9a53 8a3c 800a 9b39 7091 28bb 8091 13ba
000003c0: f0e2 b33c 8a3e d4bc 9025 1b3c ee46 c53c
000003d0: 1eb1 8b3c 4863 b03b 8824 83bc 38a1 993b
000003e0: f8b9 c73c 0046 e2ba a0ea 093c 840d 833c
000003f0: 74cb cb3c c0a9 c13b d88c d0bb aafb d53c
0.02417216 -0.008905355 0.026583098 0.017213888 0.020267706 -0.023580771 -0.029880285 0.020852815
-0.010146931 0.0041170195 -0.021189358 0.0020204931 -0.010099333 -0.013066817 0.015308712 -0.00739057
-0.0051029474 0.0074406415 0.016274355 -0.011797976 0.0069870986 -0.028642185 0.0023204796 -0.013640925
-0.021674868 -0.025262434 -0.011933442 -0.013966057 -0.014278367 -0.023769114 0.023211356 -0.02956282
-0.008219674 0.009458154 -0.0293477 0.019654412 -0.018259957 0.00029577315 0.001316648 0.01681915
0.0029517896 0.0048203245 -0.02739235 0.028415669 -0.018766936 -0.024383947 0.012678385 -0.028279658
0.005179882 0.012980562 -0.012101673 -0.014899567 0.019658942 -0.009084232 -0.029084414 0.0053872205
0.018124815 -0.011665881 -0.025426168 0.013614494 -0.022966571 0.0037062056 0.023114458 -0.020854462
-0.01108202 -0.020257238 0.025938459 -0.0005848631 -0.0074674524 -0.011703022 -0.0052920356 0.012840349
-0.010901418 0.024476957 0.0050033964 0.02783199 0.020455584 0.0011646636 -0.013400324 -0.0011125728
-0.006130822 0.010260858 -0.0077879243 -0.0110515505 -0.019438576 0.018128473 0.030829053 -0.02468134
0.007932253 0.0094661005 0.031091325 0.0068897977 -0.0045427866 0.0263189 -0.02388534 -0.02432765
-0.021940298 0.0007057041 0.01643506 -0.009229343 0.007359002 0.029932395 -0.014805768 0.002802793
-0.010024745 0.028755214 0.012243673 0.030461118 -0.015525192 -0.023505773 -0.015889987 -0.02859763
0.011549767 0.02517068 0.022415932 -0.023122601 -0.023625974 0.0017034113 0.0038247965 -0.0009809621
-0.0053873137 0.0070682466 0.029438373 -0.021005545 -0.022251155 -0.022398885 0.0126129575 -0.027547944
0.0004685223 0.004608471 -0.017575134 -0.007038474 -0.018846367 0.023658615 0.0039067566 -0.0005014613
0.0060629025 0.013611816 -0.0091985315 -0.009212241 -0.030214991 0.00845103 0.02456488 0.00973225
-0.020445894 0.0005344264 -0.008507226 -0.016170368 -0.0030469857 -0.026581097 -0.004034307 -0.020175036
0.007732708 -0.015133902 -0.018954698 -0.0073666573 -0.026400328 0.029209405 0.0066870525 -0.011451948
-0.004870862 0.018492356 -0.030528255 -0.00013581291 0.009549424 0.018553995 -0.003225904 0.023672506
-0.023058865 0.009269979 0.019924734 0.030386008 0.013538603 -0.01588076 0.006464988 -0.0024541058
0.0007022023 -0.0045981593 0.027277168 -0.011116058 0.016073138 0.025428541 0.026674572 -0.0214132
0.003257759 -0.010422759 0.015517812 -0.030635517 0.016725436 0.0065390132 0.027993001 -0.010755409
0.013779901 -0.028300691 -0.02997743 -0.020113975 -0.008178167 -0.028962538 -0.0053799152 0.008353714
-0.0011007711 -0.0031353831 -0.011195097 -0.022283401 0.011536237 0.0034729354 -0.028853681 -0.027203534
-0.019879825 -0.00790149 0.016888343 -0.019295175 0.010698684 -0.00024114922 -0.030440003 0.021022629
0.010412566 -0.024163127 0.022501457 0.008030627 -0.011662796 -0.030455273 0.016602147 0.030211262
0.0045664273 0.008469559 0.024097085 -0.010905333 0.0035205781 -0.015642814 -0.011391595 -0.00046714768
-0.0016417131 0.02317343 -0.018333334 -0.014524296 0.016885567 0.00029571727 -0.0025721453 -0.0005629286
0.021958798 -0.025908727 0.009469405 0.024081673 0.01705223 0.005382929 -0.01600863 0.004688408
0.024380669 -0.0017263293 0.008417755 0.015997656 0.024877287 0.0059101284 -0.006364446 0.02612098

fc_layers.1.bias f4 [128]
00000000: 8830 d2bb d660 e33c c051 613a 907b 6cbb
00000010: 2820 793c 68e4 fa3c 7cc0 3e3c d88d b3bc
00000020: 98b8 fa3c 808e 75ba b668 93bc 4c8f f03c
00000030: 1aed e83c c0e6 953c 30e3 253c 4447 ae3c
00000040: 8812 f2bc 0c46 2d3c e2fc c53c 0080 0ab6
00000050: 7022 eb3b acab 8cbc 9642 f03c 9c6b 3abc
00000060: 4c93 97bc 28c7 fc3b 2cd7 31bc 146f 423c
00000070: 68ec 18bc c0a2 d9ba fad7 d43c d8db cdbb
00000080: 5e36 f33c fcb1 5d3c c8e0 de3b 1013 f63b
00000090: 6ca2 8fbc 8c86 fabc 48f3 bc3b 3693 ae3c
000000a0: 66e5 af3c ce0b b63c d805 52bc a0ae 443c
000000b0: 00d6 31bb c894 e93c 0484 aebc 78ed 5fbc
000000c0: 440b d0bc b22b bfbc 7ea2 e4bc a6e4 ca3c
000000d0: a024 9a3b 5a01 b93c 405a cabb 2867 d93b
000000e0: 9ae0 a83c 78a1 96bb 880d 0f3c 00b4 1039
000000f0: 007f bd3c e846 81bc 5c71 e8bc 18c3 4fbc
00000100: 0000 cc34 943d 73bc 70b0 dabb 32cd debc
00000110: 60fc abbb 1839 ed3c d841 c7bb 5c02 1abc
00000120: dc81 f4bc f21d adbc c83d b9bc 92b4 833c
00000130: 50c0 95bc 502f 24bb 0088 c237 1014 cfbc
00000140: a685 a2bc e25b e9bc bc5e 063c 68f9 ec3b
00000150: 12ef 9fbc c29e 9f3c 2028 6ebb 8040 dd3b
00000160: 40d4 4d3b 9866 563c f228 8abc c05b 9d3b
00000170: 4088 2cbb 8055 d3bc 48a6 cb3c b4f0 b2bc
00000180: 70e1 bd3c 3a48 e33c 3213 e63c 701f 87bb
00000190: 562c b6bc b0ca 3fbb 3044 0bbb b822 57bc
000001a0: 14bb ccbc 007c 46ba 9835 c43c 8c57 033c
000001b0: 9a9e 84bc 2e0b a53c e0ab 243b 7882 033c
000001c0: 0051 c5b9 3856 4abc 94ac 213c c0c8 ba3c
000001d0: 2c22 683c 6261 cdbc d4f0 283c 464c d63c
000001e0: 9a3e be3c d864 f4bc b879 ff3b 9c77 48bc
000001f0: 1ac4 ce3c 12d0 d5bc 3c8e 1e3c 1c82 153c
-0.006414477 0.027756136 0.00085952505 -0.0036084391 0.015205421 0.03062649 0.011642572 -0.021918222
0.0306056 -0.00093672425 -0.017994266 0.029365204 0.028433371 0.018298507 0.0101249665 0.021274216
-0.029549852 0.0105757825 0.024168435 -2.0638108e-06 0.007175736 -0.017171703 0.029328626 -0.011378195
-0.018502854 0.007714171 -0.010854524 0.011867303 -0.009333707 -0.0016604289 0.025981892 -0.006282311
0.02968901 0.013531204 0.0068016984 0.0075095966 -0.017533503 -0.030581735 0.005766306 0.02131043
0.02147169 0.022222426 -0.012818776 0.0120045245 -0.002713561 0.028513327 -0.021303184 -0.013667457
-0.025395997 -0.023336265 -0.027909514 0.024767231 0.004704073 0.022583652 -0.0061753094 0.0066346116
0.02061491 -0.0045968853 0.008731253 0.00013799965 0.023131847 -0.015780881 -0.028374366 -0.012680791
3.799796e-07 -0.014846224 -0.006673865 -0.027197454 -0.0052485913 0.028957888 -0.0060808472 -0.009399977
-0.029847078 -0.021132443 -0.022612467 0.016077314 -0.018280178 -0.0025052615 2.3189932e-05 -0.025278121
-0.01983912 -0.028486196 0.008201297 0.00723188 -0.019523177 0.019484881 -0.0036339834 0.0067520738
0.0031407028 0.013085984 -0.016865227 0.004802197 -0.0026326329 -0.025797606 0.024859563 -0.021843292
0.023178786 0.027744401 0.028085325 -0.0041236207 -0.022237938 -0.0029265098 -0.002125036 -0.013130836
-0.02499155 -0.0007571578 0.023951337 0.008016478 -0.016188908 0.020146932 0.002512686 0.008026712
-0.00037635118 -0.012349658 0.009867806 0.022800803 0.014168303 -0.02507085 0.010311324 0.026159417
0.02322321 -0.029833242 0.0077964924 -0.012235548 0.025239993 -0.026100192 0.009677466 0.009125259

fc_layers.3.weight f4 [1, 128]
00000000: d6d6 75bd 9866 d3bc 32c2 013d 5c70 91bd
00000010: df77 a73d 0292 463d 50b9 b23b 642d 9fbc
00000020: 10f0 00bc 7661 093d e843 583c c4dc 983c
00000030: c474 32bd 76cf 85bd 2692 ecbc 98fb 013c
00000040: 22c9 d6bc 3636 5f3d 9935 3bbd 0fd6 ab3d
00000050: 2679 733d 9df0 823d 0054 0e3d cc26 ba3c
00000060: 9521 b2bd 1802 8fbc c694 2b3d 3ae4 0a3d
00000070: 07bf 03bd 2d1b 4fbd 2873 053d 60f6 8abd
00000080: d9aa a1bd 0ca6 8bbd 6596 9abd a010 45bc
00000090: 4ef1 243d 3259 2e3d c586 963d 8302 aebd
000000a0: a92a 9c3d 32c8 333d d8f7 693c d4fd 9f3c
000000b0: bfca ad3d 02e5 773d ee4a 533d 581d 98bc
000000c0: 72dc f3bc ceea 94bd f1de 69bd aa5b 1fbd
000000d0: b6d5 8ebd 84ae 21bd 4ba8 94bd 80c5 f73a
000000e0: cc0c f3bc bf51 b0bd 605f d3bc acb3 ef3c
000000f0: 90dd 653c 8a84 5a3d 103c 9dbd 00b6 413a
00000100: 2612 dabc 28fc 82bc a02c 8c3c 24dc 99bd
00000110: b03b 023d ba72 0d3d fe2e 2b3d 801c 60ba
00000120: d714 a13d 7cb6 083d 12e6 5e3d dc5c 92bd
00000130: becf 2c3d 40d8 08bc a253 653d 804b 573a
00000140: fe7d 21bd e4aa 92bc 0cd8 a23c 6558 95bd
00000150: 78d2 05bc 1cdc 76bd 8008 f9bb 1741 afbd
00000160: dc8a c63c 8073 abbd 0230 793d 1281 3bbd
00000170: 94d7 5fbd 00c8 d13a d4c4 8dbc 7687 533d
00000180: a831 ee3c 1365 a03d 470b 8e3d 47be 87bd
00000190: c384 b23d 882c 053d 9700 823d e2bd 513d
000001a0: 8a9c 6a3d 72e6 453d 716f b3bd 2005 153c
000001b0: c06a ba3c 7c4a f93c 9df4 a93d 0cc8 3bbd
000001c0: 1831 e5bc 30b1 983c 00ec c539 00f6 4e3a
000001d0: d01b 24bc 9cf6 cc3c 1edf 5cbd 5e4d 673d
000001e0: 744a 88bc 5729 abbd b0ff e0bb 8227 7a3d
000001f0: b29a 393d 4a18 223d 5caa 4ebd 2959 37bd
-0.060019337 -0.025805756 0.03167934 -0.07101509 0.081771605 0.048479088 0.00545422 -0.019430824
-0.007869735 0.03354021 0.013199784 0.018659957 -0.043568388 -0.06533711 -0.028878283 0.00793352
-0.026218954 0.05449506 -0.04570541 0.08390438 0.059441708 0.063935496 0.034748077 0.022723578
-0.086978115 -0.017457053 0.04188993 0.03390906 -0.0321646 -0.050563026 0.032580525 -0.067852736
-0.07893915 -0.0681878 -0.07548217 -0.0120278895 0.04026919 0.042565532 0.07349924 -0.08496573
0.07625324 0.043892093 0.014280282 0.019530214 0.084859364 0.060521133 0.05158513 -0.01856868
-0.029768202 -0.07271348 -0.05709738 -0.038905777 -0.06974356 -0.03947307 -0.07258662 0.0018903464
-0.029669188 -0.08609342 -0.025802314 0.029260479 0.014029875 0.053349055 -0.07677472 0.0007389486
-0.026619982 -0.015989378 0.017111123 -0.075126916 0.031795204 0.03453324 0.041792862 -0.00085491687
0.07865303 0.033377156 0.05441863 -0.07146618 0.042190306 -0.008352339 0.05598796 0.00082128495
-0.039426796 -0.017903753 0.01987841 -0.072922505 -0.008167855 -0.060268506 -0.00759989 -0.08557337
0.024236135 -0.08371639 0.0608368 -0.045777388 -0.05464895 0.0016005039 -0.017305769 0.051642857
0.029076412 0.078317784 0.06935745 -0.066280894 0.087167285 0.03251317 0.06347769 0.051206477
0.057278194 0.048315473 -0.0876149 0.00909546 0.02275598 0.030431025 0.082986094 -0.045845076
-0.027977511 0.018639177 0.00037750602 0.0007894933 -0.010016397 0.025019936 -0.05392372 0.056470267
-0.016637065 -0.08357494 -0.006866418 0.061072834 0.045313545 0.039573945 -0.050455436 -0.044762764
